ai-projects/ml-automatic-pathfinding/Car_deployment_2_classfication/model_weights_2.pth (torch, 36752 bytes, 4 tensors)

0.weight f4 [16, 3, 3, 3]
0	0xbd00877b	-0.031379204
1	0x3d3c95f5	0.046041448
2	0x3dff745b	0.12473365
3	0x3e2922a6	0.16517124
4	0xbd7888fe	-0.06067752
5	0x3dbc2873	0.091874026
6	0x3c68eb9a	0.014216328
7	0xbb0cc22d	-0.0021478042
8	0xbdcce913	-0.10005393
9	0x3dd1d9f7	0.102466516
10	0x3e5d0e78	0.2158755
11	0xbdc00160	-0.09375262
12	0x3e20848f	0.15675567
13	0x3cc325ba	0.0238217
14	0x3e5ab81a	0.21359292
15	0xbccad8ea	-0.024761636
16	0x3df4e701	0.11958123
17	0x3d687098	0.056748003
18	0xbd24063c	-0.040045008
19	0xbe2a62b4	-0.16639215
20	0xbcad88b6	-0.021183353
21	0xbe0e0c00	-0.13871765
22	0xbd3719f9	-0.044702504
23	0x3e03c15c	0.1286673
24	0x3e2c2be4	0.16813618
25	0x3e54172d	0.20711966
26	0xbdaab839	-0.08335919
27	0xbdc877da	-0.09788485
28	0x3c5d07cb	0.0134906275
29	0x3e0280b6	0.12744412
30	0xbd609623	-0.05483068
31	0x3dd38a49	0.1032911
32	0x3d8e2136	0.06939928
33	0x3ddc0485	0.107430495
34	0xbddb59c9	-0.107104845
35	0x3cfd1fea	0.030899007
36	0x3ddd6e14	0.10812011
37	0x3e003862	0.12521508
38	0xbe1ecab4	-0.15507013
39	0x3c6cb384	0.014447097
40	0x3e48c91f	0.19607972
41	0x3e4221e5	0.18958242
42	0x3dc3116a	0.09524806
43	0x3e3f0c1b	0.18656962
44	0x3e341bc7	0.17588721
45	0xbcb65a73	-0.022259926
46	0xbdcb69a5	-0.099322595
47	0x3e46fa4d	0.1943142
48	0xbe222b14	-0.15836746
49	0xbe0ba422	-0.1363683
50	0x3beaeb1c	0.0071691405
51	0x3dba0a30	0.09083974
52	0x3d514116	0.05108746
53	0xbe3def98	-0.18548429
54	0xbd07f63c	-0.03319381
55	0x3e385629	0.18001617
56	0x3e3990cd	0.18121643
57	0x3dbaa5b8	0.091136396
58	0x3d1723b8	0.0368993
59	0xbc92758d	-0.017878318
60	0x3d9986dd	0.07496426
61	0xbe0cb568	-0.13741076
62	0x3e0ddd6c	0.13853997
63	0x3dc61c3f	0.09673356
64	0xbe36aedc	-0.17840141
65	0xbdf758a3	-0.12077453
66	0x3e04e447	0.12977706
67	0xbdcbcbb0	-0.0995096
68	0x3dcb5d7b	0.09929939
69	0xbdb6eca2	-0.08931853
70	0xbe20ce14	-0.15703613
71	0x3d724f25	0.05915751
72	0xbd4588df	-0.048226234
73	0x3d6d4d4c	0.057935044
74	0xbc02ee80	-0.007991433
75	0xbe123e83	-0.14281659
76	0xbd79449d	-0.06085645
77	0xbcc12f5f	-0.023582159
78	0x3dc70b45	0.09718946
79	0x3dbd9d91	0.09258569
80	0x3e3d507b	0.18487732
81	0x3e2eb90a	0.17062774
82	0x3baa4f65	0.005197453
83	0x3e2d00a8	0.16894782
84	0x3da75d20	0.08172059
85	0x3da2bbe3	0.07945993
86	0x3debdff3	0.11517324
87	0xbe0bf8d7	-0.13669144
88	0xbe1f7ef8	-0.15575778
89	0xbc96fb0e	-0.01843026
90	0xbc301596	-0.010747334
91	0xbdc7a587	-0.09748369
92	0x3e0f5f81	0.14001276
93	0x3d871afd	0.065969445
94	0x3e40a078	0.18811214
95	0x3c4577e5	0.012052511
96	0xbd9ba22e	-0.07599293
97	0x3e0673c5	0.131301
98	0xbd9d1cdc	-0.0767152
99	0x3dc5bfed	0.096557476
100	0xbe12dbf2	-0.14341715
101	0x3e0732f9	0.13203038
102	0x3df91c18	0.121635616
103	0x3b9d495a	0.004800004
104	0x3d37681f	0.044777032
105	0x3e3e61e4	0.1859203
106	0x3d38ac80	0.045086384
107	0x3e0fe25c	0.14051193
108	0xbdb342b7	-0.08752959
109	0x3d4b030b	0.04956345
110	0xbe17149d	-0.14753957
111	0x3d76b42b	0.060230415
112	0x3d82d35d	0.063879706
113	0x3dc1d532	0.09464492
114	0x3e2fac0b	0.17155473
115	0xbe17cfd4	-0.14825374
116	0xbd7a11e8	-0.061052233
117	0xbd74e93d	-0.059792746
118	0xbe03abed	-0.12858553
119	0x3e413334	0.18867189
120	0xbcd75cd3	-0.02628938
121	0x3c766283	0.015038135
122	0xbd1cf8b4	-0.03832312
123	0xbe3570e3	-0.17718844
124	0x3e5f7d60	0.2182517
125	0x3e40a630	0.18813396
126	0x3e376bb5	0.1791218
127	0xbd98f88c	-0.074692816
128	0xbe0c62a8	-0.1370951
129	0x3e355ca0	0.17711115
130	0x3e2facf7	0.17155825
131	0x3e18b4db	0.14912741
132	0x3e2f17be	0.170989
133	0x3e4890c0	0.19586468
134	0xbd1cd8bc	-0.03829263
135	0xbc86fe4d	-0.016478682
136	0xbe06284b	-0.13101308
137	0x3ddd592d	0.108080246
138	0xbda99654	-0.08280626
139	0xbdf56a4c	-0.11983165
140	0x3e540507	0.20705043
141	0xbd4f7a08	-0.050653487
142	0x3dad18e8	0.08452016
143	0x3dae179c	0.08500597
144	0xbdb4db46	-0.088308856
145	0xbde06b93	-0.10958018
146	0x3e58e7d3	0.21182184
147	0x3e03cb2f	0.12870477
148	0xbd35a449	-0.044346128
149	0x3e6564f4	0.22401792
150	0xbdc392ed	-0.09549508
151	0xbb65af96	-0.0035047284
152	0x3db8373b	0.089949094
153	0x3dc16718	0.09443492
154	0x3e62e9b1	0.22159459
155	0xbdab3b10	-0.08360875
156	0x3e4199c3	0.18906312
157	0xbde91cb8	-0.11382431
158	0x3e28f5d2	0.16500023
159	0x3dddbc97	0.10826986
160	0xbe095015	-0.13409455
161	0xbd8025ba	-0.06257196
162	0x3d9c0a5b	0.07619163
163	0x3d8bd5e1	0.068279035
164	0x3e143ea4	0.1447702
165	0x3df2acdd	0.11849377
166	0xbdb8b203	-0.09018328
167	0x3e6c6eb3	0.23089103
168	0x3d51a1ac	0.051179573
169	0xbdc780e9	-0.097413845
170	0x3dbc5159	0.09195203
171	0x3dae9fdc	0.085265845
172	0xbd282d1c	-0.041058645
173	0xbdcf24fc	-0.10114476
174	0xbc80acf7	-0.015707476
175	0x3e690078	0.22754085
176	0x3db28d6c	0.0871838
177	0x3c0aa6b4	0.008462597
178	0xbc2c41e6	-0.010513758
179	0xbcf8a61d	-0.030352646
180	0x3e26b374	0.16279393
181	0xbd7055a8	-0.05867544
182	0xbe0225f4	-0.1270979
183	0x3e3545f5	0.17702468
184	0x3d352885	0.044228096
185	0x3d80623d	0.062687375
186	0xbc48cc09	-0.012255677
187	0x3d404399	0.046939466
188	0xbde70783	-0.112807296
189	0xbde6eba8	-0.112754166
190	0xbd21898b	-0.03943781
191	0xbb92d69d	-0.0044811503
192	0xbde6b679	-0.11265273
193	0xbdee99db	-0.11650439
194	0x3e13cf11	0.14434458
195	0x3c71647e	0.014733432
196	0x3d988d04	0.074487716
197	0xbd184e99	-0.03718433
198	0xbd2d90a9	-0.042374287
199	0x3e2213fd	0.15827937
200	0x3db8b0c3	0.090180896
201	0x3c2fc9c4	0.010729257
202	0x3da98d9d	0.08278964
203	0x3dc93df7	0.09826272
204	0xbd7c6072	-0.061615415
205	0x3e29fcff	0.16600417
206	0x3e33823a	0.17530146
207	0x3dbbf819	0.0917818
208	0x3dcd79dd	0.10033009
209	0x3b281551	0.0025647471
210	0x3d339f75	0.043853242
211	0x3c8cfccd	0.017210389
212	0x3e14594e	0.14487192
213	0x3e1aaf56	0.15105948
214	0x3daeb958	0.08531445
215	0x3e3d05d0	0.18459249
216	0xbd9e3de7	-0.07726651
217	0xbdffb14f	-0.12484991
218	0x3e33086c	0.17483681
219	0xbdf529c5	-0.119708575
220	0xbdc8e0e8	-0.098085225
221	0x3ddc6d51	0.10763038
222	0x3ce88a90	0.028386384
223	0x3dabb7c3	0.08384659
224	0xbd318623	-0.043340813
225	0x3e61fbde	0.22068736
226	0xbdaa75af	-0.083232276
227	0x3e1e378e	0.1545088
228	0x3e02afff	0.1276245
229	0xbd30a12f	-0.043122467
230	0x3e310551	0.17287184
231	0x3b4dcb84	0.0031401822
232	0x3e002f1b	0.1251797
233	0x3e14c92a	0.14529863
234	0x3d8e7990	0.0695678
235	0x3cd39d27	0.025831772
236	0xbc7dd798	-0.015493296
237	0x3d88c117	0.06677454
238	0x3de88c50	0.113548875
239	0xbd3adf21	-0.04562295
240	0x3dfda2f6	0.12384598
241	0x3e10af82	0.14129451
242	0xbe14066d	-0.14455576
243	0x3dc159e1	0.09440971
244	0xbe015376	-0.12629494
245	0x3e532f6a	0.20623556
246	0xbe01420f	-0.12622856
247	0x3e2d627a	0.16932097
248	0x3dc86c67	0.09786301
249	0xbd27d17f	-0.040971275
250	0x3ddbc826	0.10731535
251	0x3e3fe757	0.18740593
252	0x3e3609a7	0.1777712
253	0xbd0d976c	-0.034568235
254	0xbd0cf552	-0.034413643
255	0xbd9781d2	-0.07397808

0.bias f4 [16]
0	0x3e0c36d2	0.13692787
1	0xbdf133bb	-0.11777445
2	0xbe38ea64	-0.18058163
3	0xbd928930	-0.07155073
4	0x3de0d76d	0.10978589
5	0x3da02312	0.07819189
6	0x3d7dc366	0.061953925
7	0xbdb4ee9d	-0.08834574
8	0xbe05cc06	-0.1306611
9	0xbc0d9652	-0.008641796
10	0xbe2f81c6	-0.17139348
11	0xbdb81645	-0.089886226
12	0xbe2a74ff	-0.16646193
13	0x3da1a7aa	0.078933075
14	0xbd0eeae3	-0.034891974
15	0x3db887ad	0.09010253

4.weight f4 [2, 4096]
0	0xbd530133	-0.051514816
1	0x3c0d95d7	0.008641682
2	0x3aaab9b6	0.0013025317
3	0xbc380660	-0.011231989
4	0xb9ff6a65	-0.0004871666
5	0x3b93bfa5	0.00450893
6	0xbb0a471d	-0.0021099516
7	0x3d02c82f	0.03192919
8	0xbc26cf42	-0.01018125
9	0xbc39d7fd	-0.0113429995
10	0x3bdc13fa	0.0067162486
11	0x3c784636	0.015153458
12	0x3aaa4ff5	0.00129938
13	0x3c198e8f	0.0093723675
14	0x3bea72e0	0.0071548074
15	0xbcc4085c	-0.023929767
16	0x3bbf456a	0.005837132
17	0xb9e27fbd	-0.00043201252
18	0x3c3e95d9	0.011632406
19	0xbc1dfa0e	-0.009642137
20	0x3beffec2	0.0073240707
21	0xbca11617	-0.019663854
22	0x3ce4cb3e	0.027928945
23	0x3c3c3551	0.011487321
24	0xbc416a19	-0.011805081
25	0x3be6c795	0.007042835
26	0x3ad7a345	0.0016451856
27	0x3bce6aaf	0.006299339
28	0x3bf463f1	0.007458203
29	0x3a1e5f78	0.00060414476
30	0x3be4c67f	0.0069816704
31	0x3d32009f	0.043457624
32	0xbd5b87ed	-0.053596426
33	0x3c15ea90	0.009150162
34	0x3c2aea8a	0.010431895
35	0x3a8bcfe0	0.001066681
36	0xbbaf5449	-0.0053506237
37	0xbbf51798	-0.0074796192
38	0x3bfe2d79	0.0077568856
39	0x3b0b4831	0.0021252746
40	0x3c3aedf4	0.0114092715
41	0xb804e48a	-3.1684096e-05
42	0x3b85e898	0.004086565
43	0xbbcd4530	-0.0062643513
44	0xbc158f3c	-0.009128388
45	0xba62f896	-0.0008658258
46	0xbc258293	-0.010101932
47	0x3bb4f2da	0.005522114
48	0xbd3b4d67	-0.045728114
49	0xbbccf22f	-0.0062544565
50	0x3ad1f375	0.001601799
51	0xbc18aa1d	-0.009317902
52	0x3babf446	0.0052476255
53	0xbc129c4b	-0.008948396
54	0xbbbf4a23	-0.005837695
55	0xbb272dd0	-0.0025509484
56	0x3a74f11b	0.0009343789
57	0xbb84b8bf	-0.0040503438
58	0xbb79adbf	-0.0038097946
59	0xba2bf04d	-0.000655894
60	0xbbbca23c	-0.0057566445
61	0x3c412eeb	0.011790971
62	0x3c073774	0.008252967
63	0x3cb9b167	0.0226676
64	0xbd5e475d	-0.054267276
65	0xbbb631c3	-0.0055601313
66	0x3c7d06b9	0.015443497
67	0xbb50ae23	-0.0031842075
68	0x3c753d48	0.014968224
69	0xba316be5	-0.00067680917
70	0x3c4b91c6	0.012424892
71	0xbc716b0d	-0.014734996
72	0xbbf308ec	-0.007416835
73	0x3bacf2a2	0.0052779475
74	0xbc1ae012	-0.009452837
75	0x39e1f368	0.00043096696
76	0xbbdcc8fd	-0.006737827
77	0xbc3b4f5a	-0.011432493
78	0x3c0979fb	0.008390899
79	0x3d01d2e8	0.031695276
80	0xbd1c2e14	-0.03812988
81	0xba4133d4	-0.0007370089
82	0xbc44ef32	-0.012019919
83	0x3c440ae4	0.011965487
84	0x3c691384	0.014225844
85	0x3bcb93b7	0.0062126773
86	0x3b93c03c	0.004509
87	0xbb6c011a	-0.0036011399
88	0xbc280ec2	-0.010257425
89	0x3a67d3a9	0.00088434905
90	0xbbc8dea7	-0.006130058
91	0x3c758aea	0.014986733
92	0xbbbf9fc5	-0.0058479034
93	0xbc6da94c	-0.014505696
94	0x3bafef6d	0.005369118
95	0x3c95d357	0.018289251
96	0xbcd094c6	-0.025461566
97	0x3c62fba4	0.013853941
98	0xbc7a15a8	-0.015263952
99	0x3c742432	0.014901208
100	0xbc0ca64b	-0.008584569
101	0xbc44298a	-0.011972794
102	0x3a0a0972	0.00052656897
103	0xbba7f51e	-0.005125656
104	0xbba398c1	-0.004992575
105	0xbb4aacba	-0.0030925707
106	0xbc601c1b	-0.013678576
107	0xbc2c5bbd	-0.010519919
108	0x3bd624d8	0.006535154
109	0x3aebca90	0.0017989445
110	0xbc723162	-0.014782282
111	0x3c34599b	0.011007692
112	0xbc3ecfac	-0.0116461925
113	0x3aae26e7	0.001328674
114	0xbc51a703	-0.012796166
115	0xbc3240eb	-0.010879735
116	0xbc4c4db4	-0.012469698
117	0xb9fad7b8	-0.0004784444
118	0xba87c11d	-0.0010357235
119	0xbc358fcd	-0.011081648
120	0x3c6a2caf	0.01429288
121	0x3c7bf968	0.015379287
122	0x3c0b3b74	0.008498061
123	0x3b0c0b32	0.0021368978
124	0x3c4cd4b7	0.012501887
125	0x3c506c6f	0.012721165
126	0x3bffddb9	0.007808414
127	0x3b39d541	0.002835587
128	0x3cc533c4	0.024072535
129	0xbb3bb492	-0.0028641564
130	0xbbec33c1	-0.007208318
131	0xbc049e93	-0.008094448
132	0xbc0fba41	-0.008772434
133	0xbbfc6298	-0.007702183
134	0xbba32300	-0.0049785376
135	0x3c616da5	0.013759051
136	0x3c58ad99	0.013224983
137	0xb98a3034	-0.00026357325
138	0x3b371f5e	0.002794228
139	0x3b16d313	0.0023013994
140	0xbbc938c5	-0.0061408007
141	0xbbaf30e8	-0.0053464063
142	0x3baa9714	0.005205998
143	0x3c9cde8d	0.01914909
144	0xbbed92a6	-0.007250148
145	0xbc4624fb	-0.012093778
146	0xbac595df	-0.0015074572
147	0x3c61ab51	0.013773755
148	0xbc04bc2e	-0.008101506
149	0x3c4cebee	0.012507422
150	0xbc424c7e	-0.0118590575
151	0x398cb8b3	0.00026840493
152	0x3c416c65	0.011805628
153	0x3c4c7010	0.01247789
154	0x3b0b7ac6	0.0021282895
155	0xba0bed2c	-0.00053377706
156	0xbc20dc48	-0.009818144
157	0x3c3a9bf8	0.011389725
158	0xbc15e2c2	-0.009148302
159	0x3c9d6cc3	0.0192169
160	0x3d234752	0.03986294
161	0x3c7355a4	0.014851961
162	0x3c73af7e	0.014873384
163	0xbc08de10	-0.008353725
164	0x3c75dc1d	0.015006092
165	0xbc40c165	-0.011764859
166	0x3be6f547	0.0070482823
167	0x3a7bb674	0.0009602078
168	0xb87d8ca6	-6.045089e-05
169	0xbae8b160	-0.0017753057
170	0xbb5c0071	-0.00335696
171	0xbbbf62cc	-0.005840635
172	0x3c3fd5db	0.011708702
173	0xbc0f43c8	-0.008744188
174	0x3c1422d7	0.00904151
175	0x3ba07ca0	0.004897669
176	0x3cbdf4f1	0.023188086
177	0xbaa9d51b	-0.0012957187
178	0xbc1a476c	-0.009416442
179	0xbb007f2f	-0.0019607057
180	0xbc2cf3bc	-0.010556158
181	0x3a022136	0.0004964055
182	0xbc32206e	-0.01087199
183	0xbb5f8262	-0.0034104814
184	0xbc2c2de7	-0.010508991
185	0x3c36b430	0.0111513585
186	0xbc134356	-0.008988222
187	0x3c45da87	0.012076027
188	0xbc046bb9	-0.008082324
189	0xbc3a9a24	-0.011389289
190	0x3c7a4e4d	0.015277457
191	0xbd0b8e52	-0.034071274
192	0x3c0c59f0	0.008566365
193	0xbb7be713	-0.0038437292
194	0xbc1fda94	-0.009756703
195	0x3ba0730f	0.0048965286
196	0xbbb7e7c2	-0.0056123445
197	0xbc49d09d	-0.012317804
198	0x3b82fa43	0.0039971187
199	0xbc77f37c	-0.015133735
200	0x3bd2697f	0.0064212675
201	0xbc00e138	-0.007866196
202	0xbbff4266	-0.0077898977
203	0x3c6f28ed	0.01459716
204	0xbc515215	-0.012775918
205	0xbc5ab634	-0.013349105
206	0x3ac8c0c2	0.0015316235
207	0xbc055d42	-0.00813991
208	0x3d026ee7	0.031844046
209	0xbc1b9174	-0.009495128
210	0xbb7ff38e	-0.0039055082
211	0x3a23e1d0	0.0006251605
212	0xbbcd3308	-0.006262187
213	0xbb52e601	-0.003218055
214	0x3c193812	0.009351747
215	0x3c123e29	0.008925953
216	0x3b874420	0.004127994
217	0xbc02f205	-0.007992272
218	0xbc4a4ddc	-0.012347665
219	0xbc6edce0	-0.014579028
220	0xbb64fe3a	-0.003494157
221	0xbc40c08b	-0.011764656
222	0x3bd5a940	0.0065204203
223	0xbcffa4f3	-0.031206584
224	0xbc8eadf0	-0.017416924
225	0x3be06b89	0.0068487567
226	0x3c742c88	0.014903195
227	0x3bff06b3	0.007782781
228	0xbc49c8f5	-0.012315978
229	0xbc276d86	-0.0102189835
230	0x3bc83164	0.0061094034
231	0xbbde2ade	-0.0067800125
232	0xbc7ae403	-0.015313151
233	0x3c60e008	0.013725288
234	0xbc635d0a	-0.013877163
235	0xbc6e217c	-0.0145343505
236	0x3c6984a3	0.014252814
237	0x3c1b3a87	0.009474403
238	0x3c69a4e1	0.014260502
239	0xbc91baf4	-0.017789342
240	0x3c8ae2de	0.016953882
241	0x3bae1991	0.0053131063
242	0x3cc495e9	0.023997264
243	0x3c994983	0.018711811
244	0x3b91766e	0.0044391667
245	0xbb1dca12	-0.0024076742
246	0x3c35d732	0.01109867
247	0x3aeb869d	0.0017969195
248	0x3c8d3829	0.017238693
249	0x3bc42175	0.0059854337
250	0xbad0e5b1	-0.0015937594
251	0x3cb2390d	0.02175572
252	0x3beb0eca	0.007173394
253	0x3c39b5eb	0.0113348765
254	0xbc9528b1	-0.01820788
255	0xbb0445d8	-0.0020183232

4.bias f4 [2]
0	0xbd9371d5	-0.07199446
1	0x3d8a4277	0.067509584
