ai-projects/ml-automatic-pathfinding/deploy/model_weights_3.pth (torch, 536488 bytes, 10 tensors)

0.weight f4 [4, 3, 3, 3]
000000 78 11 e0 3d 4f 20 e8 bd fc 8d 22 bc 41 c9 ba bd
       0.10940832 -0.113342874 -0.009921547 -0.091204174
000010 9e 7d b6 bd a2 74 6e 3e f2 c0 04 be 95 67 51 be
       -0.08910678 0.2328668 -0.12964228 -0.2044967
000020 6d 3e 97 3d 22 bc 40 be 5e 1f 82 bd ed bf 71 3d
       0.07384954 -0.18821767 -0.06353639 0.059020925
000030 3a 78 1d 3b 56 b1 a9 3d 8b 98 c4 bc aa d3 0f 3b
       0.002402796 0.08285777 -0.02399852 0.002194623
000040 15 83 b2 3d 8b 32 ac 3b 3b 0d 1a 3d ff 79 26 3e
       0.08716408 0.0052550486 0.037610274 0.16257475
000050 7d 7d 3c be d3 8a 43 be 49 94 2d 3e ea 29 75 3e
       -0.18407245 -0.19095926 0.16951098 0.2394177
000060 a6 4f 7c be 58 c8 1c be 39 76 71 3e 63 36 0e be
       -0.24639758 -0.153108 0.23580255 -0.13887934
000070 9d 78 34 3e 37 0e 6f 3e f1 aa 8b 3c d4 fb 89 3d
       0.17624135 0.23345266 0.017049285 0.067374855
000080 aa a8 95 3e 11 71 44 be 08 3b 05 3c d2 b3 a2 bd
       0.29230243 -0.19183756 0.00813175 -0.07944454
000090 27 24 79 be 30 cd 3a 3e 18 2a 7d 3e 7e f1 f4 bd
       -0.24330197 0.18242335 0.24723089 -0.119601235
0000a0 be e5 bb bc 76 41 bf 3d 93 47 3c be 0f 2c a6 bd
       -0.022936698 0.093386576 -0.18386678 -0.08113872
0000b0 75 ec 8e bd 60 35 61 be f1 4d d5 3c 98 58 69 3d
       -0.06978694 -0.21993017 0.026038142 0.056969255
0000c0 7a a1 22 3d 41 5c 78 bb 0a 57 1d 3e 02 a3 1b be
       0.039704777 -0.0037896784 0.15365234 -0.15198901
0000d0 5d 59 5a be 15 62 de 3d 58 e5 dc bc ad 38 2b 3e
       -0.21323152 0.108585514 -0.026964828 0.16720839
0000e0 a1 4e 37 be cc 0c 54 3e 1a 36 fe 3d 82 ec 16 be
       -0.17901088 0.20708007 0.12412663 -0.14738658
0000f0 47 e8 05 3d 1e bd 08 be 93 72 17 bd d9 b5 a8 3d
       0.03269222 -0.13353392 -0.0369745 0.0823781
000100 fe 84 48 3e f4 f9 01 be 94 70 58 bd 5d c2 b6 bd
       0.19581982 -0.12693006 -0.052841738 -0.089237906
000110 04 18 f9 3d 01 c6 96 3c fa 06 50 be 5e da cd bd
       0.12162784 0.018404962 -0.20315161 -0.10051416
000120 c3 f8 55 bd 3c 69 80 3d 79 bc f0 bc 5d 90 02 3e
       -0.05223919 0.06270072 -0.029386746 0.12750383
000130 3f 0d a9 3d c2 ee ca 3d ab 1e 39 be 4c a3 cd 3c
       0.082544796 0.09908821 -0.18078105 0.02510228
000140 08 b2 17 3d db 28 54 3e 9c 0c 44 bc 7a 5e 89 bd
       0.03703502 0.2071871 -0.011965897 -0.06707473
000150 5b 9d 3c 3e b1 62 b9 bc e6 db 0a be 1c 75 d2 bd
       0.18419401 -0.022630068 -0.13560447 -0.10276243
000160 46 9a 41 3c 82 39 0a be 54 23 98 bc 6b 7e 62 3e
       0.011816567 -0.134985 -0.018571533 0.22118537
000170 b4 ab 1f 3c fb 2d dd 3c f4 e6 39 3e 7d 9a 6d bd
       0.009745527 0.026999464 0.18154508 -0.05800866
000180 6c 2f 2b 3c d3 62 36 3e 71 b6 44 be 1d 53 77 bd
       0.010448318 0.17811136 -0.19210221 -0.060381997
000190 bb 53 a9 3d 96 06 1b 3d f0 99 33 3e 7a fb a8 3d
       0.082679234 0.037848078 0.17539191 0.0825109
0001a0 00 d1 23 be b1 51 8f bd bf cf 3d 3e 96 d1 3b be
       -0.15997696 -0.06998003 0.1853628 -0.1834167

0.bias f4 [4]
000000 1d da e2 bd af bd 82 bd 55 3f 2b 3d a7 d3 02 3e
       -0.11076758 -0.063838355 0.041808445 0.12776051

3.weight f4 [8, 4, 3, 3]
000000 9a 97 33 be c5 ac e0 3d 9a 62 47 3d 26 0e ad bd
       -0.175383 0.10970453 0.04867802 -0.08449964
000010 3c b7 23 be 56 63 0a 3d 5c 79 af 3d de 5c 8a bc
       -0.15987867 0.03378614 0.08568069 -0.016889986
000020 30 d2 ed bd bc 19 5f bd b9 ca 13 be ef e1 03 3d
       -0.11612356 -0.0544679 -0.14432801 0.03219789
000030 e5 eb 1a be df 27 9f 3d fc f0 d8 bd 35 41 fa bd
       -0.15129049 0.07771277 -0.10592839 -0.122194685
000040 d8 80 02 3c 3c 14 0d bd 01 d1 6a 3d 22 9e 1b 3d
       0.007965289 -0.034443125 0.057328228 0.037992604
000050 12 c2 d5 3d 92 f6 c9 3d 95 ff 02 3e e3 8b 8a 3d
       0.104374066 0.09861483 0.1279281 0.067649625
000060 d2 0d 4c 3d 89 61 ba 3c 41 39 35 be 2e e6 06 3e
       0.049817868 0.022751587 -0.17697622 0.13173744
000070 2c 88 d8 3d d8 31 e5 bc c0 ff dc bd b4 15 61 bd
       0.10572848 -0.027977869 -0.10790968 -0.05495234
000080 ff d1 4b 3d eb 68 a8 bd cf 5a 1a 3e bb 7b a8 3d
       0.049760815 -0.082231365 0.15073703 0.08226725
000090 ac ef 36 bc f7 d3 fe bd bd fa bc 3d 68 2f 13 bd
       -0.011165541 -0.12442773 0.09227512 -0.035933882
0000a0 87 58 aa bd d4 f9 ae 3d 68 1a 86 bc a7 f3 99 3d
       -0.083176665 0.08543745 -0.016370013 0.07517176
0000b0 19 ac 94 3d 18 16 84 be d0 32 19 bd e9 3e c6 3d
       0.072593875 -0.25798106 -0.037401974 0.09679968
0000c0 09 36 50 bd 81 57 99 bd f9 ca 17 be 35 61 e6 3d
       -0.050832782 -0.07487393 -0.14823522 0.112490095
0000d0 7d 2f 4e bd 10 74 c5 3d 80 b4 60 3e a9 cf b2 3d
       -0.050338257 0.09641278 0.21943855 0.08731014
0000e0 6f c2 25 bd a4 a8 9b 3d 69 0a 10 be 82 26 f8 bd
       -0.04046863 0.07600525 -0.14066471 -0.1211672
0000f0 5e 2c 28 3d 7a b7 78 bd fc 70 5d 3c c2 06 88 3e
       0.041057937 -0.060721852 0.013515707 0.26567656
000100 4b 74 0c be 3e 98 31 be d4 c0 4d 3e 18 ee 82 bc
       -0.13716237 -0.17343232 0.2009309 -0.015982673
000110 7c e4 e0 bd fb 2b 59 3d 37 78 90 bb ad 16 eb bd
       -0.1098108 0.05302046 -0.004408862 -0.114789344
000120 ee 52 a2 bd b3 e9 9b 3b 1b bc 8e 3d 25 c1 53 3e
       -0.07925974 0.0047580837 0.06969472 0.20679148
000130 e3 93 42 be ac 90 6a 3c 78 48 94 3c 83 fb d9 3d
       -0.19001727 0.014316719 0.018100962 0.10643675
000140 1d 43 20 3e 49 7d 59 be dc 2f ce 3b 8f 83 20 be
       0.15650602 -0.21239199 0.0062923264 -0.15675186
000150 6b 05 8b bd 01 65 2d be 3b 26 96 3d c1 69 6a bd
       -0.06788143 -0.16933061 0.07331511 -0.05722976
000160 b7 c4 88 3e 51 4b 90 bc 60 e9 4e bd 74 a6 29 3c
       0.26712582 -0.017614039 -0.050515532 0.010354627
000170 d4 55 d3 bd df be af bc c4 45 34 3b 4c 15 37 bd
       -0.10319105 -0.02145332 0.0027507404 -0.044698045
000180 45 d7 11 3e cb 17 1e 3e d5 9c 32 3e 7d d0 48 3d
       0.14242275 0.15438764 0.17442639 0.049026955
000190 58 d1 11 3e 2b 62 99 bd c6 b4 06 be 27 2f 52 3d
       0.14240015 -0.07489427 -0.13154897 0.0513145
0001a0 c8 cc 17 be 35 00 be 3c 14 b7 25 bd df 4a 25 be
       -0.14824212 0.023193458 -0.0404578 -0.16141842
0001b0 1f 3a 29 be ff 07 ab 3d ac 51 f0 bc 7c bf 33 bd
       -0.16526078 0.083511345 -0.02933582 -0.043883786
0001c0 28 82 aa 3e 1c 02 9e bd 85 7f 4b 3e e3 ac c7 3d
       0.33302426 -0.07715246 0.19872864 0.097497724
0001d0 4d 12 28 bd 45 c2 0a bc a6 91 bd 3d 50 47 b6 3b
       -0.041033078 -0.008469169 0.09256296 0.0055627003
0001e0 1a fc 06 3e c6 56 12 3e cc b8 1e be 4e 9e 86 3d
       0.13182107 0.14290914 -0.15500182 0.06573163
0001f0 50 9f dc 3c fa af 00 3d 0d b5 ac 3d ea 86 c8 bb
       0.026931435 0.031417824 0.0843297 -0.0061195986
000200 cf 9d 05 3d 31 e6 93 3e ab 3f 8c bd ba 5d 50 3e
       0.0326212 0.2888656 -0.06848081 0.20348254
000210 53 fe be bd 44 c5 2e 3e 83 6e 3d 3e 22 75 d5 3c
       -0.09325852 0.17067438 0.18499188 0.02605683
000220 69 6f d3 bd 5a 1b 6f 3e 75 34 86 3e 8f 99 cd bd
       -0.10323984 0.23350278 0.26211897 -0.100390546
000230 56 16 e8 3d d5 ca 84 bd 65 ca 10 3d 0c e7 d0 3d
       0.11332385 -0.06484 0.03534927 0.10200319
000240 f1 aa d5 3d d5 90 4b 3e 33 5e 16 be 65 00 06 3e
       0.10432995 0.19879468 -0.14684372 0.13086088
000250 47 d6 6f 3e f2 c0 e8 3c 64 3d 27 3e 4c 40 92 be
       0.23421584 0.028412316 0.16332012 -0.2856468
000260 1b 29 ab bc 05 c6 08 bd 35 bd 29 be 13 03 82 3d
       -0.020893624 -0.03339197 -0.16576083 0.063482426
000270 23 75 a6 3b 50 4c 03 3e d6 80 2e be ee 44 1f 3e
       0.0050798818 0.1282208 -0.17041335 0.15553638
000280 e9 65 09 bd c4 14 28 3e 5c 8f 07 3d cd c0 9a bb
       -0.033544455 0.16414171 0.033095703 -0.0047226907
000290 89 e8 2f 3e b7 4d 2c be 35 2c da 3e ed 67 76 3e
       0.17178549 -0.16826521 0.42611852 0.24063082
0002a0 98 b4 d2 3d 78 0f b2 3e b2 6d a0 3d 48 f0 b1 3d
       0.10288352 0.34777427 0.07833423 0.08688408
0002b0 b8 96 ca 3d 98 9b aa 3c 16 48 c4 bd 76 14 5b 3e
       0.098920286 0.020826146 -0.09584062 0.21394524
0002c0 f4 ab 8b 3d 5d 1b b6 3d 9c 5d 91 3d 8f 22 f0 3d
       0.06819907 0.08891938 0.07097933 0.117253415
0002d0 d1 b2 9f bd 6f ff 1c 3e cc 0a 3f be 6b a6 62 3e
       -0.077977784 0.15331815 -0.18656462 0.22133796
0002e0 ce 2e e5 bd 01 db 0c 3e c3 65 48 3d a7 6a 8a bd
       -0.11190568 0.13755418 0.048925173 -0.067586236
0002f0 ac 12 dd bc 35 17 52 be 09 b8 9a 3d 64 d2 61 bd
       -0.026986443 -0.20516665 0.07554633 -0.055132285
000300 4d a4 b2 3d 8e 56 1c bd 81 e9 4c be 63 0d 64 3e
       0.08722744 -0.038168482 -0.2001095 0.22270732
000310 e6 bf 32 3e 0a 17 18 3e 3b 08 b3 3d 2b 5d 05 3c
       0.17456016 0.14852539 0.08741804 0.008139889
000320 cf 48 96 bd 4d 7c 2a 3e 90 81 88 bd ea 1f 7c bb
       -0.07338106 0.1664898 -0.06665337 -0.003847117
000330 cf 25 8b bd 22 93 8d 3e b4 06 ad 3d 84 b6 84 3e
       -0.06794321 0.27651316 0.08448544 0.25920498
000340 ee 9b 45 be 47 38 0a 3e 78 39 39 3e 95 57 fc bd
       -0.19297764 0.1349803 0.18088329 -0.123213924
000350 4c f0 b1 bd ac f6 0f bc c8 e5 89 3d 7b c3 b5 3d
       -0.08688411 -0.0087868385 0.067332804 0.088751756
000360 52 a7 22 3d 6b 00 2b be d1 6f 32 be bd 4a 8f 3e
       0.03971035 -0.16699378 -0.17425467 0.27986708
000370 33 49 0c 3e 29 3c 72 bd 62 ac 58 be 71 18 2e 3e
       0.13699798 -0.059139404 -0.21159509 0.17001511
000380 0d 88 ea 3d aa 67 cf 3d d1 1c bd bd f3 19 d4 3d
       0.11451731 0.10127194 -0.09234012 0.10356512
000390 fb 48 b8 3d 09 48 49 3c 9c 1f 4b be 7b 1b 33 bd
       0.08998295 0.012285241 -0.19836277 -0.04372738
0003a0 c8 64 18 3e 31 eb 19 be 24 d0 3c 3e 5e 81 32 be
       0.14882195 -0.15031125 0.18438774 -0.17432162
0003b0 c8 b4 91 be 4e f9 fb 3d e1 04 87 3e c6 53 16 bd
       -0.28458238 0.123034105 0.2637091 -0.036700986
0003c0 7c e4 46 3d c5 16 b5 3e 97 fb ef 3d 0d ca 36 3e
       0.048557743 0.35368934 0.11717909 0.17850514
0003d0 d7 c9 ff 3d c9 1f 4f 3e 8c 85 3d be ba c0 9d 3c
       0.1248967 0.20226969 -0.18507975 0.019256938
0003e0 60 f8 93 3e d7 92 0e 3e 0d bf 26 3d 46 7d 26 3e
       0.28900433 0.13923202 0.040709544 0.16258726
0003f0 85 2a da 3e d3 57 00 3e 30 c4 01 be a8 55 c3 3e
       0.42610565 0.12533502 -0.12672496 0.38151288

3.bias f4 [8]
000000 a0 1e da 3c 10 5c 0b be f4 93 1b 3c cf 8c bf 3d
       0.026625931 -0.13609338 0.009495724 0.09353029
000010 fb 66 f4 bd 7e e3 19 bd 61 5b 58 3a be 7f 47 3b
       -0.119337045 -0.03757047 0.00082533626 0.003044113

6.weight f4 [16, 8, 3, 3]
000000 16 dd 96 3c 51 15 80 3d 68 7a 06 bc f8 18 1e be
       0.018415969 0.06254066 -0.008207895 -0.15439212
000010 93 b5 b3 bd 54 5a c6 bd 34 08 56 3d cc ff bf bd
       -0.08774867 -0.096851975 0.052253917 -0.09374961
000020 76 f1 3e 3d 38 50 a6 bd 79 51 06 3e 2c db f5 bd
       0.046616994 -0.08120769 0.13117017 -0.12004694
000030 3f 16 84 bd 84 6f 69 bc 32 2a 35 be a0 94 4d 3e
       -0.064495556 -0.014247779 -0.17691877 0.20076227
000040 e2 f9 21 3e f5 c6 b9 bd 6f 57 a9 3c 6a f2 07 3e
       0.15817979 -0.09071151 0.020671574 0.13276067
000050 da e5 d3 3d cb cb 0d be 6a ff c1 3c bd 99 8d 3d
       0.10346575 -0.13847272 0.023681361 0.06914089
000060 00 3a ae 3d 37 88 e3 bd d1 bd d7 bd da 3b 9b 3d
       0.08507156 -0.11109965 -0.105342515 0.07579775
000070 1a ac 5b be 06 6f 2c be a2 6e 5a 3e dd b7 53 bd
       -0.2145237 -0.16839227 0.21331266 -0.051689018
000080 de 28 03 be 82 88 5b 3d 52 7c 94 3c bc 1b f4 bd
       -0.12808558 0.05359698 0.018125687 -0.119193524
000090 04 e1 a8 3d ff e6 aa bc 4a f7 82 3d 73 a0 3f bd
       0.08246043 -0.0208621 0.06394823 -0.046783876
0000a0 4a 5a 35 3e 03 52 d8 3d 4b df 6e 3c b9 72 97 bd
       0.17710224 0.105625175 0.014579604 -0.073949285
0000b0 c0 5b 81 3d d7 16 f4 bb d2 13 f8 bd 30 b9 76 bd
       0.06316328 -0.007449012 -0.121131554 -0.060235202
0000c0 a3 57 00 3e 0a 92 21 bd 4b 8b 63 3d c6 73 32 3e
       0.12533431 -0.039445914 0.055552762 0.17426977
0000d0 3c ba 78 be 60 13 21 be 5a 1c 4d 3d 1e fd 98 bc
       -0.24289793 -0.15730047 0.050075866 -0.018675383
0000e0 f7 a8 5a bd b2 6a 71 be b2 ce 3d 3e a2 ba 94 3d
       -0.053383794 -0.23575857 0.18535879 0.0726216
0000f0 26 8b ba 3c 38 bd 3e be 31 1b 24 3d 91 96 e3 3e
       0.02277143 -0.18626869 0.040064994 0.4445081
000100 45 a4 1b 3e 82 d1 81 bd 44 a1 13 3f 1d 1d 62 3c
       0.15199383 -0.063387886 0.57667947 0.013800886
000110 55 7a 42 be c9 2e 37 3f 0e cc 35 be 26 93 da 3e
       -0.18991978 0.71555763 -0.17753622 0.4269039
000120 bc 95 33 bd 15 dc fc 3c a0 e7 b6 3d 6f 72 04 3d
       -0.04384397 0.030866662 0.08930898 0.032335695
000130 a5 53 bf bc 77 7a 00 bc 20 46 97 bc f7 76 2b 3d
       -0.023355315 -0.007841698 -0.018466055 0.0418615
000140 cf bb 77 3d 55 00 06 bb 7b 6f 08 3d 20 8e 3a bd
       0.060481843 -0.0020446975 0.03330944 -0.045545697
000150 dd 92 88 3c c5 9a b8 bd 81 7a 5f bd bb 0e ee bc
       0.016671592 -0.09013895 -0.05456019 -0.029059758
000160 fe b1 3a 3d 7f 28 a8 3b 22 6d 70 3d 92 0c 37 bc
       0.045579903 0.0051317806 0.058697827 -0.011172431
000170 35 b3 01 bd f7 6d e7 bd a7 50 7a 3d 51 b2 98 3d
       -0.031665046 -0.11300271 0.061112072 0.07455886
000180 f7 ef d2 3a 27 36 9b 3d 5e 11 28 bd 41 b5 32 be
       0.0016093244 0.07578688 -0.041032188 -0.17451955
000190 91 d5 dc 3d b1 de 16 be cc 10 35 bd fe 88 25 3d
       0.10782922 -0.14733388 -0.044205472 0.04041385
0001a0 a0 82 ad 3d cd 90 4b 3c 9a 1d 19 be 3e bd d5 3d
       0.0847218 0.01242466 -0.14952698 0.10436486
0001b0 ec 24 e4 3c c3 95 24 3e 9d a2 a0 3d fe 66 20 bd
       0.027849637 0.16072755 0.07843516 -0.03916072
0001c0 e9 ed 07 3e c6 27 5a 3d 78 2c f6 bc 57 fa 33 be
       0.1327435 0.053260587 -0.030050501 -0.17575966
0001d0 68 8a be 3c 26 07 d6 bd 72 13 07 3e fd ec 7b 3e
       0.023259357 -0.10450582 0.13191012 0.24602123
0001e0 f5 7e 1e be 41 3c e1 3d 8f 11 80 3d 68 13 b5 bc
       -0.15478118 0.10997821 0.06253349 -0.02210398
0001f0 fb 85 f1 3d 30 7d b8 3c 01 cc 5d be 80 a3 1a 3e
       0.11793133 0.022520632 -0.21659853 0.15101433
000200 8b cc 93 3c e2 1f 72 bd fc ab 35 3e a7 be b8 3d
       0.01804187 -0.059112437 0.17741388 0.09020739
000210 d3 0b 6d be 44 15 1f be 84 f4 2d 3e 04 27 dd be
       -0.23149042 -0.15535456 0.16987807 -0.4319383
000220 40 f2 38 3e c5 65 09 3e b6 c5 82 be c2 8c 21 3e
       0.18061161 0.13417728 -0.25541466 0.15776351
000230 af ee 0b bd 52 6f 45 3d 2f 71 83 3e 5a e0 9f be
       -0.034163173 0.048201866 0.2567229 -0.31225854
000240 b3 2a ca bc 33 c1 0d 3d 37 7f 2b bc 58 8d 42 3d
       -0.024678564 0.034608077 -0.010467342 0.047498077
000250 68 db 00 be c7 4b 9c 3d 70 30 a4 3b bd 65 07 bd
       -0.12583697 0.07631641 0.005010657 -0.03305601
000260 20 f6 2b bd c3 27 13 bd e2 67 e7 3c 44 1f 7e 3d
       -0.04198277 -0.03592659 0.028247777 0.062041536
000270 87 6f 31 bd 00 3d 83 bd 70 16 92 bd 72 59 2b 3d
       -0.04331925 -0.06408119 -0.07133186 0.04183335
000280 8f 96 26 3d c5 3f f8 bc db 3e 4d bc 95 c4 57 bd
       0.040670928 -0.030303845 -0.012527193 -0.05267771
000290 c3 a4 e3 3c 46 5c f9 bd a5 9f ad bb 42 5f 7a bc
       0.027788525 -0.12175803 -0.005298572 -0.0152815
0002a0 a4 9e 6d bd e5 15 b2 3c ec 7a 75 bd 95 3c 5f bc
       -0.05801262 0.021738956 -0.05993168 -0.013625284
0002b0 37 e8 75 3c f1 cb db bd 6c 96 d8 bd 8b a7 11 be
       0.015008978 -0.10732258 -0.10575566 -0.14224069
0002c0 7d ad 3f bd 09 77 0d be 0f 1d f8 bd df 19 ad bd
       -0.04679631 -0.1381494 -0.121149175 -0.084522
0002d0 6c bd d1 bd 49 75 90 3c 99 34 d2 bc 0d 2e 3a bd
       -0.102412075 0.01763405 -0.025659846 -0.045454074
0002e0 2a 56 d9 3c 4e 03 9e 3d db de 10 bb 27 f5 a8 3d
       0.026530344 0.07715474 -0.0022105488 0.08249884
0002f0 1c 4b a3 bd 99 6e 8e 3d d2 74 48 3d 28 27 e8 3d
       -0.0797331 0.069546886 0.048939534 0.113355935
000300 19 fa 07 3d de 9d 66 bd ae 2d 6d 3d a1 9b 70 bc
       0.033197496 -0.056302898 0.05790489 -0.014685542
000310 db ae 1f be 25 c0 dc 3d 15 21 34 be d2 52 c0 bc
       -0.15594046 0.10778836 -0.17590745 -0.023476992
000320 d3 ea e1 3d f9 cc 9d bc 88 d2 43 3b 91 aa 7b bd
       0.11031117 -0.019262778 0.0029880125 -0.06144196
000330 6e 31 05 bd 75 1d 02 3d e1 70 ef bd 2b b5 a0 bd
       -0.032517843 0.031766374 -0.11691452 -0.07847055
000340 f1 8f 66 3b 70 ef 97 bd fe eb b2 bd 18 76 1c be
       0.003518101 -0.07418716 -0.08736418 -0.15279424
000350 2c c8 7d bd aa 00 2b be 44 7c 27 be 45 33 e5 bd
       -0.061958477 -0.16699472 -0.16355997 -0.111914195
000360 ba 0d 3c bd 38 ec c3 3d 3a 7a 12 3e 72 bd 8a bd
       -0.04591153 0.095665395 0.14304438 -0.06774415
000370 51 8c 6d 3b eb da d6 3c 19 d8 aa bd e6 44 75 3d
       0.0036246965 0.026227435 -0.083419986 0.05988016
000380 5b 07 c6 3d 64 f2 3c bd fa ab 56 3d 1b 7b 52 bd
       0.09669372 -0.0461296 0.052410103 -0.051386934
000390 b2 a9 a4 bd 16 e9 d7 bc 43 8a b7 3d be 0b b2 3d
       -0.08040179 -0.026356261 0.08961918 0.08693646
0003a0 57 df 8a 3d 8c 6b 1e 3d d9 32 23 3d dc 98 fb 3d
       0.0678088 0.038676783 0.039843414 0.12285015
0003b0 78 4e 22 bd 5b 99 b9 bc 53 2f 49 3e 0d 25 c2 bd
       -0.039625615 -0.022656133 0.19646959 -0.09479723
0003c0 74 24 92 bd 8e 37 af bd bd 8d 1b be be be ed bd
       -0.07135859 -0.08555518 -0.15190788 -0.11608647
0003d0 32 70 0a bd ee 2f bf bd 36 07 d7 bb 0f 5b 8e 3d
       -0.033798404 -0.09335314 -0.006562139 0.06950962
0003e0 5d 36 30 bd 0f 53 a3 bd b1 aa ae bc 4a 7a 4e bd
       -0.043020595 -0.079748265 -0.021321626 -0.050409593
0003f0 60 ae fc bb d7 d2 0a 3d 0e 18 14 3e d8 66 b2 bd
       -0.007711217 0.03389248 0.14462301 -0.08711022

6.bias f4 [16]
000000 f1 9e 2a be 31 01 45 bd 66 36 5e 39 47 9a a7 bd
       -0.16662194 -0.04809684 0.00021191835 -0.08183723
000010 30 21 b2 bd 3c ef ed bd f0 8b 60 bd e4 f4 c4 bd
       -0.08697736 -0.11617896 -0.054820955 -0.09617022
000020 56 37 b6 bb c4 5f b4 bd e5 2c c6 bd a3 e5 a1 3c
       -0.005560796 -0.08807328 -0.09676532 0.01976282
000030 2e 1f 06 be 79 f8 e8 bd 24 97 8c bc 7f 7f c8 bd
       -0.13097832 -0.113755174 -0.017161913 -0.09789943

10.weight f4 [128, 1024]
000000 83 23 5a bd d2 5b ee 3c 8a c3 27 bd 11 9f 58 3e
       -0.053256523 0.029096518 -0.040957965 0.21154429
000010 7e 97 ee 3d 39 50 2b be 09 aa 92 3d e4 ab b9 3c
       0.116499886 -0.16729821 0.07161338 0.022664972
000020 b2 7f 8e bd 46 aa 12 bd e0 19 ae 3c 82 7a c8 bc
       -0.0695795 -0.035806917 0.021252573 -0.024472479
000030 67 4a 4d 3e 80 22 d5 3b ee 68 26 3b 28 a2 42 3d
       0.20047913 0.006504357 0.0025392133 0.047517926
000040 68 46 ac bd e8 8a 33 3e 6d 58 60 bd 09 99 45 bd
       -0.084118664 0.17533457 -0.05477183 -0.04824165
000050 ef 03 25 bd d7 2b 85 bd a0 4a 93 3c 5a 7b 0c 3e
       -0.040286954 -0.065025024 0.01797992 0.1371893
000060 72 86 92 bd 7d 2a 0c bc 00 36 37 3b d5 1a 6e bc
       -0.0715455 -0.008555052 0.002795577 -0.014532764
000070 b5 bc 41 bd 06 0b f9 bd 26 7c 3a 3d 9c 5a 85 3d
       -0.047299106 -0.12160306 0.045528553 0.06511423
000080 f8 fe fb 3c e8 31 55 3c bd eb b2 bc 2e 03 ea 3a
       0.030761227 0.013012387 -0.021840924 0.0017853731
000090 d8 f6 ad bc e6 76 96 bd ba 8a 4a bd 03 1f 1b 3d
       -0.021235868 -0.07346897 -0.049448706 0.037871372
0000a0 f6 db 36 3c 0c a1 27 be 1e 7f 55 bd 25 dd 1a bd
       0.011160841 -0.16370028 -0.05212318 -0.037808556
0000b0 e2 26 5c bc 81 64 01 bd a0 20 76 bd 05 46 2e bd
       -0.013437005 -0.03158999 -0.060089707 -0.042547245
0000c0 dc 53 8b bd 65 dc 8b bd f0 14 31 bd 36 61 81 bc
       -0.06803104 -0.06829146 -0.04323286 -0.015793424
0000d0 56 a0 21 3c 6f 12 4b bd b2 73 fb bd 10 f6 69 bb
       0.009864887 -0.049578127 -0.122779265 -0.0035699643
0000e0 4a 4c 03 3d 9c 18 ec 3c 1f f3 26 bd 1b 97 5f bd
       0.032055177 0.028820328 -0.040759202 -0.054587465
0000f0 31 1b 6e 3a 2c 33 e2 bc fb 8b 75 3c 19 c0 0e bc
       0.00090830313 -0.027612291 0.014986987 -0.008712792
000100 80 47 f5 bb 4c f4 fe bd f7 ed 0e 3e aa 96 a1 bd
       -0.00748533 -0.1244894 0.13957964 -0.07890065
000110 06 e0 49 3d 45 5a 0e 3e 74 d8 d2 ba e6 9d d3 bc
       0.04928591 0.13901623 -0.0016086237 -0.025832128
000120 54 46 96 bc cb c7 03 3e 25 b8 1e 3d b3 5d 34 bc
       -0.018344082 0.12869184 0.038749833 -0.011008668
000130 3d a5 7c bb 45 77 50 bd e6 87 54 3d cf 0c 00 bd
       -0.0038550638 -0.050894994 0.051887415 -0.031262215
000140 79 dd 82 bd 38 55 bb bd 9e da 14 bd e1 82 9c bc
       -0.06389899 -0.091471136 -0.036341302 -0.019105377
000150 f6 54 0e bd b9 ee b7 bc d8 8a 2f bd 66 f1 35 be
       -0.034748994 -0.022452699 -0.04285702 -0.17767867
000160 4e 18 31 bd 84 43 1a 3d 99 ad bd bc 13 c4 3a bd
       -0.04323607 0.037662044 -0.023154067 -0.045597147
000170 7b e3 b1 bd b5 c8 01 3c d6 c3 c7 3c 4c fc 83 bd
       -0.086859666 0.007921387 0.024385374 -0.06444606
000180 ba c1 26 bd 5f d8 6f bd 56 0f 17 bd 1b 21 1f bd
       -0.040712096 -0.058555957 -0.03687986 -0.03884993
000190 3c ea a4 bc 2c a1 3f bd 29 02 5f bd b2 d8 92 bd
       -0.020131223 -0.046784565 -0.05444542 -0.071702376
0001a0 b4 f0 8b 3d b1 c6 2b bd 18 bf 98 bc 06 70 c4 3b
       0.0683302 -0.041937534 -0.018645808 0.0059947995
0001b0 57 e9 12 bd 65 7b a2 bc bc 3a 46 bc 9f ae e2 bc
       -0.03586706 -0.01983423 -0.012098964 -0.027671156
0001c0 9d 39 a5 bc b0 e9 c6 bc 04 ff 26 bd a9 a5 8b 3c
       -0.020169074 -0.024281353 -0.040770546 0.017046766
0001d0 18 22 1c bc 13 11 cd bc 7c 49 a3 bc 98 8c 55 bd
       -0.009529613 -0.025032556 -0.019932501 -0.052136034
0001e0 65 bb d0 bc 73 bc 36 bd c1 c3 2f bd f5 00 74 bc
       -0.025479982 -0.044613313 -0.042911295 -0.014892806
0001f0 ee 07 11 bb 24 9b 06 bd b3 25 ec bc d5 ee c3 bc
       -0.002212997 -0.032862797 -0.02882657 -0.023917595
000200 a0 dc 42 bc 3c 1d 18 3c 16 d8 a4 3b 83 a6 2a 3c
       -0.011893421 0.009284314 0.0050306423 0.010415676
000210 bf 77 79 bc 2b ae c7 bc 55 78 5f 3b b2 ee 07 bd
       -0.015226304 -0.024375042 0.0034098823 -0.033186622
000220 cd af 29 3c a0 be c7 bc e6 62 21 3c b0 59 11 bd
       0.010356856 -0.02438289 0.009850239 -0.035485923
000230 df 44 6c 3c a3 bd 85 3c 3e 90 1c bd 2f bf 4c bc
       0.014420717 0.016325777 -0.038223498 -0.012496754
000240 e1 0a 4e bd 03 54 97 3c 2e df 05 bc a1 f2 f7 bc
       -0.050303344 0.018472677 -0.008170886 -0.030267062
000250 9c 51 80 bd 6a 9d ce bc e3 58 c1 bc 70 13 af bc
       -0.06265566 -0.025221545 -0.023601955 -0.021371573
000260 39 e7 c5 bc 4e 3b da 3c 63 64 e7 bb f2 e7 a2 bc
       -0.024158107 0.026639607 -0.0070615276 -0.01988599
000270 ea 67 17 bc cd a8 ae bb a2 32 7c 3c 2f 53 d2 bc
       -0.009241084 -0.005330181 0.015392931 -0.02567443
000280 32 0e 14 3c 5a b2 b5 3c 8e 6b ea 3a 93 94 ed bb
       0.009036588 0.022179771 0.0017884837 -0.0072503774
000290 d9 64 76 bd 39 10 76 bd f4 1f aa bc 49 37 f8 38
       -0.06015477 -0.060074065 -0.02076719 0.00011835859
0002a0 3b ec 78 3b 30 3d 1f bd 34 dd 32 bb 55 99 fd bc
       0.0037982601 -0.038876712 -0.0027292492 -0.030956903
0002b0 04 54 0b bd fa ee 36 bd 96 a5 ef bc c9 d6 d2 3b
       -0.03401567 -0.0446615 -0.029253762 0.006434296
0002c0 81 b9 29 bc 73 1f 82 bc 5b fb 04 bd 4a 62 f3 3a
       -0.010359169 -0.015884137 -0.032466274 0.0018568721
0002d0 3c f6 2f 3c bf 00 38 bd 88 f6 33 bd ba 29 44 3b
       0.010739859 -0.044922587 -0.043936282 0.0029932098
0002e0 b0 39 1a bd 00 99 66 ba dd 16 f5 bc 45 e7 e1 3b
       -0.03765267 -0.00087966025 -0.029918129 0.0068940246
0002f0 05 f8 6a bb b0 75 37 bc 74 dc 67 bc 4a 6d 7c bc
       -0.0035853398 -0.0111974925 -0.014151681 -0.015406916
000300 ff 2c d1 bc b6 3c 43 be 65 d4 10 3e 65 15 6e 3d
       -0.025534151 -0.19066128 0.14143522 0.058125872
000310 03 d3 8f 3d 38 20 14 3e 9c 70 3d bd 5b 88 14 3d
       0.07022669 0.14465415 -0.04624997 0.03626285
000320 9a 98 b9 bc e8 6d 0c 3e 7a fc dc 3c 62 ed 9a 3d
       -0.022655774 0.13713801 0.026975859 0.075648084
000330 97 59 8a 3c 4f 3b aa bd a9 86 75 3d d1 5b 3e 3d
       0.016888423 -0.083120935 0.059942875 0.04647428
000340 f8 f3 41 be 52 6d 78 bd 92 7a cc bd 0c 84 ec bc
       -0.18940723 -0.06065113 -0.09984316 -0.028871559
000350 6c 77 7c bb a3 87 81 bc 01 30 e6 bb f8 d7 d8 bd
       -0.003852333 -0.015811747 -0.0070247655 -0.10588068
000360 64 ad 29 be 81 db a2 3d 79 d5 52 bc ec bc ae bb
       -0.1657005 0.07952023 -0.012868279 -0.00533258
000370 e5 36 f2 bd df 53 bf bc bb 1a 40 3d a1 2a a9 3c
       -0.118268766 -0.023355423 0.046900492 0.02065021
000380 a3 33 ac 3c 4e 7f 13 3c 2e 8b 1a bd a7 49 ca b9
       0.021020716 0.00900252 -0.03773039 -0.00038583318
000390 47 1f cb bd e5 ef bc 3c 35 21 b4 bc 88 89 0d 3d
       -0.09918075 0.02306361 -0.02198849 0.03455499
0003a0 08 5f f2 3c b9 18 85 bd a9 94 3b 3c 28 2e 07 3d
       0.02958633 -0.06498856 0.011449018 0.033003002
0003b0 30 02 ea bc a8 32 11 3c 5f b4 39 bd 3f 78 81 bc
       -0.028565496 0.008862175 -0.04533803 -0.015804408
0003c0 fd 65 8d bc 47 dd 5c bd 6e ba 45 bd 49 71 71 3d
       -0.017260546 -0.053921964 -0.048273496 0.058945928
0003d0 13 c1 bc 3c 7a cc 02 3d 75 01 09 3d 0b 0f 33 3d
       0.023041284 0.031933285 0.033448655 0.043715518
0003e0 6d ed d8 3c c5 fe 18 bd 6b c9 45 bd 5b 1c 58 bc
       0.026480401 -0.037352342 -0.04828779 -0.013190354
0003f0 10 27 f0 bc 56 a4 eb bc 4d 7e 49 3d 31 c2 6c bc
       -0.029315501 -0.028764885 0.049192715 -0.014450596

10.bias f4 [128]
000000 8b d8 fb 3b 40 ad 74 3c f3 71 64 bc 09 1b 08 bb
       0.007685726 0.014933884 -0.013943183 -0.0020768067
000010 6f 37 6e bd b6 08 40 bd 87 81 ae bb 2e 47 09 3b
       -0.058158334 -0.046883307 -0.0053254995 0.0020946967
000020 1b c0 76 bd ed 02 31 bc 2c 30 c6 3b b5 7d 85 bd
       -0.0602418 -0.01080392 0.006048223 -0.06518117
000030 8e a9 7a 3d fa 43 75 bd b9 7e a8 bc be 96 0e bd
       0.061196856 -0.05987928 -0.020568239 -0.034811728
000040 ea 72 eb bc 0f 04 6f bd 05 80 49 bd f8 11 24 bd
       -0.028741319 -0.05835348 -0.049194355 -0.0400562
000050 f5 67 aa bb aa 72 14 3c 86 33 22 3d 54 59 4a 3d
       -0.005200381 0.009060541 0.039599918 0.049401596
000060 ff a1 e5 bc 63 60 4d bc 57 f1 eb bc b6 ef c4 bc
       -0.028031347 -0.012535187 -0.028801603 -0.024040084
000070 7b 45 02 bd 01 10 25 bd 58 1c f2 3c 1e 6e ee 3c
       -0.031804543 -0.040298466 0.029554531 0.029105242
000080 58 21 17 bd b8 3c 4c bd c3 aa 6b bd 3b 9f e3 3c
       -0.036897033 -0.049862593 -0.057535898 0.027785888
000090 6c a8 5e bc b8 79 04 bd c2 8c d3 3b 9e 56 c5 3d
       -0.01358996 -0.032342643 0.0064559886 0.096356615
0000a0 cf 23 fb bc 11 c4 11 3d 81 74 8c 3c 3f 62 8d 3d
       -0.030656723 0.035587374 0.017145397 0.069035046
0000b0 e6 21 1f 3c 52 a4 45 3c cf 82 49 bd 75 26 0c 3b
       0.009712672 0.012063103 -0.049197014 0.0021385227
0000c0 33 4f 01 bd 08 f0 8f bd 3e da 56 3d 0b 20 c7 bb
       -0.03156967 -0.07028204 0.052454226 -0.006076818
0000d0 25 34 57 bd f8 1d 04 bc c7 b4 67 bc 0a a1 1b 3d
       -0.052539963 -0.008063786 -0.014142222 0.037995376
0000e0 50 78 38 bd 2e 52 d1 bc 1b 42 77 bd cf 85 cf 3c
       -0.045036614 -0.025551882 -0.060365777 0.02533236
0000f0 f2 d4 5b bd 07 c3 33 bc 4e c7 25 3d 67 52 1c 3d
       -0.053669877 -0.010971791 0.040473275 0.038164522
000100 09 8d 82 bd 73 09 8d bd 94 b7 18 bd 70 1a 3e bb
       -0.063745566 -0.06886568 -0.03728445 -0.0029007457
000110 ec 92 93 3d 62 c2 38 bb bc d3 19 bd 13 62 ef bc
       0.072057575 -0.0028192033 -0.03755544 -0.02922157
000120 29 a9 bb bc 2a c5 6c bd 4b 37 80 bd 3e 3d ca bb
       -0.02290781 -0.057805218 -0.06260546 -0.0061718514
000130 4c f8 fe bc cc 93 40 bc 4f c5 4e bc fe ca a1 3d
       -0.031124257 -0.0117539875 -0.012620284 0.07900046
000140 4d ff 43 bd ae de 8b 3c 80 fa 99 bb f4 64 b2 bc
       -0.047850896 0.017073955 -0.0046990514 -0.021776654
000150 8c 1d 84 bc e6 9e 5a bd 4e 5f 88 bd f9 ce a0 3c
       -0.01612737 -0.053374194 -0.06658803 0.019629942
000160 bd f5 70 3d 5a 19 41 bd bf 7c fe bb 55 cc 57 bd
       0.058828104 -0.047143318 -0.0077663357 -0.0526851
000170 c9 22 8e bc e8 13 2a bd 77 2b 94 bc da 47 ef bc
       -0.017350571 -0.04152289 -0.018087132 -0.029209066
000180 51 f3 b9 3c 6d cf 80 bd 1d 7c df bc 69 6b b5 bd
       0.02269903 -0.06289563 -0.027280862 -0.088583775
000190 5c 1c e3 bc 70 30 7c bd be db 89 3d 37 e9 53 3d
       -0.027723484 -0.06156963 0.067313656 0.051736083
0001a0 ed 3a a6 3c 28 c9 bc bc 9b f7 31 bd 99 5f c2 bd
       0.02029177 -0.023045138 -0.043449026 -0.0949089
0001b0 34 ca 8d bc 38 37 23 bd 1f d0 34 39 8b 30 d7 bc
       -0.017308332 -0.039847583 0.00017243669 -0.026268264
0001c0 ba cc 1d bd 0d d9 5a bd 66 5e 42 3b 3e 4c 57 3d
       -0.03852532 -0.053429652 0.0029658317 0.052562945
0001d0 8f 95 bd 3d 43 7f c1 bd 6f 71 7e 3d ce 59 0a bd
       0.09257042 -0.09448101 0.062119897 -0.03377705
0001e0 cc 3f 8d 3c 92 f1 d3 bd a9 a3 38 bd 15 de fd bc
       0.017242335 -0.1034881 -0.045077953 -0.030989686
0001f0 29 67 5f bb f8 02 f2 3c f8 02 42 bd b7 71 54 bc
       -0.0034088588 0.029542431 -0.047366112 -0.012966565

13.weight f4 [3, 128]
000000 1d 3f 9e bd b5 94 92 bd 75 a7 23 3e bc 60 82 3e
       -0.07726882 -0.0715727 0.15981849 0.25464427
000010 fe cb 98 bd 4b ba 02 bd 52 0b 56 be d4 67 a1 3c
       -0.074607834 -0.031915944 -0.20902756 0.01970283
000020 75 d2 98 bc c6 d4 f7 bd 5e f1 11 bd aa 78 93 3d
       -0.018655041 -0.1210113 -0.035630576 0.07200749
000030 6e b5 31 3c 9d 9a 13 3e f2 a7 01 3d ba 41 b3 bc
       0.010846479 0.14414449 0.031654306 -0.021881927
000040 5a 86 01 bd 34 e9 6c bd 6f 1d d7 3b df 28 fb 3d
       -0.03162227 -0.057839587 0.006564788 0.12263655
000050 e5 a7 28 3e 25 cd c3 3d 0b ea 5a be a2 ac 29 be
       0.16470297 0.095606126 -0.21378343 -0.1656976
000060 5b 4f a9 3d 3b b2 25 bd 45 d0 ef bc 0c 7c e5 3d
       0.08267089 -0.040453177 -0.029274115 0.11205301
000070 39 68 4c bd 67 42 56 bd 2f 76 a0 bd c3 c8 30 bd
       -0.049904082 -0.05230942 -0.07835042 -0.04316021
000080 20 9f d4 3c f0 e2 2f 3e 38 4f 4f bd 46 30 16 3e
       0.025954783 0.17176414 -0.05061266 0.14666852
000090 ec bf a9 3c 9a 52 b3 bb 89 33 02 3e f8 9d 81 be
       0.020721398 -0.0054724934 0.12714972 -0.25315833
0000a0 9e d1 10 bc f5 aa dd bd aa 4a 20 bd 8c ac 80 be
       -0.008839039 -0.10823623 -0.039133705 -0.25131643
0000b0 6e b1 8b 3d 8c cf a4 3d 06 5f 6d 3c f8 cd 15 bd
       0.068209514 0.08047399 0.014487987 -0.03657338
0000c0 36 1d 4c bd 94 3b 33 bc ee 8b fd bd 6e a5 2f 3c
       -0.049832545 -0.0109394975 -0.12380205 0.010720594
0000d0 02 d6 b6 3a ba d6 80 bd 09 d3 95 3d 35 e5 f5 bd
       0.0013949277 -0.06290956 0.073156424 -0.120066084
0000e0 4c 73 1a bd a2 63 bc 3b da 81 4f 3d c9 ef 11 3e
       -0.037707612 0.005749182 0.050660945 0.14251627
0000f0 f0 e8 50 3d 58 2c 0a bd 1a 23 5d be 2b be bc bd
       0.051003397 -0.033733696 -0.21595421 -0.09215959
000100 5a ef 27 bd be 88 bc 3c b9 0d 86 bc 69 7c ab bd
       -0.040999748 0.023014423 -0.016363965 -0.08373339
000110 c7 cb 46 be de 2c d6 3c 05 03 8c bd b2 25 3f 3d
       -0.19413672 0.026144441 -0.068365134 0.04666681
000120 b0 c4 31 bd 90 84 a7 3d ce 12 42 bd 27 55 ad 3c
       -0.043400466 0.08179581 -0.047381215 0.021158768
000130 52 d5 26 bc fb 49 24 ba a7 77 44 bd bc ff 34 be
       -0.010182695 -0.00062671275 -0.047965672 -0.1767568
000140 e2 b3 90 bd 43 0e 16 3e f6 ac 8d 3d 34 42 0b 3e
       -0.0706556 0.14653878 0.06917755 0.13599473
000150 f2 28 cd bc ef fb a0 3c 69 f3 05 bd 48 1c 1a 3e
       -0.025043938 0.019651381 -0.032702837 0.15049851
000160 b7 ef 0e be 15 33 e6 bc 86 e9 ed 3d 6c d0 42 bd
       -0.13958631 -0.02810053 0.11616807 -0.047562048
000170 21 d9 a2 3c 91 b7 87 bc 05 47 a9 bd 09 dc cb 3b
       0.019878926 -0.016567023 -0.08265499 0.0062212986
000180 fc 21 16 3e 2e 06 9f 3c bb 74 67 3d 6e 4c db 3c
       0.14661402 0.019412126 0.056507807 0.026769843
000190 25 93 b3 bd 85 2c b8 bd 58 55 97 be 4d c9 0b be
       -0.087683 -0.089928664 -0.295573 -0.13651009
0001a0 44 ea fe 3d 39 64 22 3e 14 61 e9 3c fe 3d cf 3d
       0.12447026 0.15858544 0.028488673 0.10119246
0001b0 2e c1 69 3d 22 65 1e 3d 87 a3 1d be 75 36 18 bd
       0.057068996 0.038670667 -0.15394412 -0.03716131
0001c0 db 65 4c bb 2a 67 37 3d 48 f2 68 be b3 51 2c be
       -0.003118864 0.04477612 -0.22748673 -0.16828041
0001d0 6a 28 ac be ca 2c 2f 3d 45 99 81 be 00 6f 65 3d
       -0.33624583 0.042767324 -0.25312248 0.05601406
0001e0 d6 50 4b 3d 33 00 98 3d 2b 05 d5 3d e8 5a 10 bc
       0.049637638 0.07421913 0.10401376 -0.008810736
0001f0 e8 ee 37 3d 9d 24 5c 3d 87 e9 39 3d 74 f7 fa 3d
       0.044905573 0.053745855 0.045388725 0.12254229
000200 67 a0 24 bd 4c 63 a6 bd 3f 5f 19 be a6 3d cb 3a
       -0.040192034 -0.08124408 -0.1497774 0.0015506044
000210 06 d3 d8 3d 5e e1 80 3d 87 4a 43 3d 4c a6 71 be
       0.105871245 0.062929854 0.047678497 -0.23598593
000220 37 f1 c1 3d 25 b1 1a bd 21 79 51 3b f3 23 58 3c
       0.09469836 -0.037766594 0.0031963068 0.013192165
000230 40 4f 15 3e 52 af e9 bd 5c b1 8f bd ec 2d 30 b9
       0.14581013 -0.11410393 -0.070162505 -0.00016801775
000240 e5 cf d3 bc f3 ce 37 bd 94 51 88 3d 56 94 13 3d
       -0.025855968 -0.044875097 0.06656185 0.036030136
000250 39 93 32 be 59 fa 25 be f4 c5 92 3c fd 55 06 3e
       -0.17438973 -0.16208781 0.017916657 0.1311874
000260 47 8f 47 3d 66 30 ff bc bb de 9b ba 3b bd 5a 3b
       0.048720624 -0.031151008 -0.001189194 0.003337695
000270 57 2f ed bc cf b3 46 3c 78 26 99 3d 76 da c1 3e
       -0.028953237 0.012127831 0.074780405 0.37861985
000280 96 5d 86 bd ad ae 90 bc 8c 55 c1 bc a0 71 e6 37
       -0.06560819 -0.017661417 -0.023600362 2.7471047e-05
000290 b2 1f 48 bd 79 b3 26 3d f8 1c b2 bd 6e 0a df 3d
       -0.048858352 0.040698502 -0.086969316 0.10890661
0002a0 90 53 e4 3c 52 40 0f 3e b6 de a4 3d 36 e0 a5 3d
       0.027871877 0.1398938 0.08050291 0.080994055
0002b0 b5 c0 dc bd b2 ca 13 be b4 f1 16 3d ee a5 b5 bd
       -0.107789434 -0.14432791 0.0368516 -0.08869539
0002c0 af 51 c2 bc 96 d1 73 bc 67 29 27 bd ee 8a 61 3d
       -0.02372059 -0.014881512 -0.04081097 0.055064134
0002d0 5c 8f 2c bc 37 ac 3a bd f7 ae 08 bd 7f a6 cc 3d
       -0.010532226 -0.045574393 -0.033369984 0.09992694
0002e0 41 fa eb 3c 63 f4 45 3d 3b 17 77 bd 84 4a 9a 3d
       0.028805854 0.04832877 -0.06032489 0.07533744
0002f0 d3 3b f9 3c ea 44 0b 3d 78 65 c5 bc 61 38 32 3d
       0.030424034 0.03400127 -0.024096236 0.0435108
000300 24 a2 28 bd b0 07 98 3c ba e6 01 3c ce eb cb bd
       -0.041170254 0.018558353 0.007928545 -0.099570855
000310 f2 9f 5b 3e e7 a3 66 be b4 08 bd bd 3a 37 92 3c
       0.21447733 -0.22523461 -0.092301756 0.0178486
000320 3d 34 ae 3a 2e b1 9b bc 50 7f c7 ba db 8e 3d 3e
       0.0013290715 -0.019005384 -0.0015220437 0.18511526
000330 75 a1 93 3c 96 cb 80 bd cd 83 29 3d dd 65 75 3e
       0.018021325 -0.06288831 0.04138546 0.23964639
000340 65 3b 2a 3d 59 f8 28 bc 9a e0 17 be 52 c4 83 bd
       0.04156055 -0.010313117 -0.14831772 -0.064339295
000350 65 b5 04 3d 02 d6 8f bb 9c 0a 86 bb 02 37 2d be
       0.032399554 -0.0043895254 -0.00409062 -0.16915515
000360 3a 97 12 3c f7 97 8e bd c0 24 e7 bb ed 18 4a bd
       0.008947188 -0.06962579 -0.0070539415 -0.049340177
000370 cf 7e 84 3d 8c f9 be 3c 4a 73 29 bd 09 37 56 be
       0.06469499 0.023312353 -0.041369714 -0.20919432
000380 c7 05 78 3d c7 4a 1b 3c e9 ee 48 3d 05 55 2e 3a
       0.060552385 0.0094782775 0.049055967 0.0006650242
000390 e0 e7 9b bc 8a 7e bd 3b ac b1 3f 3e 1d cd b2 3d
       -0.019031465 0.005782907 0.1872012 0.087305285
0003a0 ec 20 33 be ca 9d cb bc 77 36 81 3d 53 4b 60 bc
       -0.17493027 -0.024855513 0.063092165 -0.013689834
0003b0 74 7d a8 bc 2b 95 53 ba 6e 26 e6 3c 85 3a 70 bd
       -0.020567633 -0.0008071239 0.028094497 -0.05864956
0003c0 a5 01 1f bd 03 15 23 3d 5e 11 5a 3d e1 23 97 bb
       -0.038819928 0.03981496 0.05323922 -0.0046124314
0003d0 ef 62 a5 3d e7 4e c9 3d 39 d3 14 3e 51 41 60 bd
       0.08075511 0.098295026 0.145337 -0.05474979
0003e0 49 a8 2f 3e f7 30 79 3d 07 2c ac 3c 56 3d 92 3b
       0.1715404 0.060837712 0.021017088 0.004462878
0003f0 f3 e2 4c be a6 22 dd 3d 0c 86 07 3d 05 a3 ea bc
       -0.2000845 0.10797624 0.03308682 -0.028642187

13.bias f4 [3]
000000 1b 95 e7 bd 3a 94 a9 bd 57 85 cc 3d
       -0.113077365 -0.08280225 0.0998637
